tflite/model.tflite (tflite, 222612 bytes, 24 tensors)

hal_net/sequential_3/dense_2/BiasAdd/ReadVariableOp/resource f4 [6]
00000000: db5e 973e bb75 c13d a41b 13bf be15 b2bb
00000010: 652a fa3c 9756 5fbe
0.29564556 0.094462834 -0.5746405 -0.005434721 0.030537793 -0.21810375

hal_net/sequential_3/dense/BiasAdd/ReadVariableOp/resource f4 [128]
00000000: 9dd7 e6bc 73ee 12bc c367 6fbc 37fa 73be
00000010: 75d3 f5bb 03f7 d43e f575 af3d 624d 1cbd
00000020: 82b8 13bd b075 5bbd ec58 403d 55fc aabc
00000030: 8ebd 46bc db51 71be 30aa cabc bbd3 1a3e
00000040: bb98 00bd 6b35 0b3c 64cc 37bb ad21 583e
00000050: 86a7 24bd 181d 9b3b 1c00 ab3d 4c4a ef3c
00000060: d3ea 47bd b42b 903d b0f1 01bd 887d 123e
00000070: d148 bfbc a805 e7bd 978d e7bc b896 d43d
00000080: 1ba5 59be 89b3 d2bc 0000 0000 f1cd 6d3c
00000090: caa9 9b3e 6be4 7bbc 0000 0000 24d7 f13d
000000a0: a9b2 30bd 4696 82be c61c 1abc 56a6 693d
000000b0: b04f 0abe abc5 c3bc 92fa 4e3e c9cc 99bd
000000c0: 9e81 35bd 2464 2abe 0f63 abbc b753 fe3c
000000d0: 08f8 04bd 4385 07bc 3cc3 6e3d 1eb6 603e
000000e0: af78 adbc d7b3 be3c ea7d a9bc a57f 60bd
000000f0: b0b5 04be 98b0 793e c83e 07bd ac17 3dbd
00000100: cc67 c6bd 6900 2cbd 1653 19bd 84f3 f3bc
00000110: 97d2 43bd a4d9 05bd 9646 71bc 2f3b 0d3c
00000120: 3b34 ffbd 82a6 06bd 62ec c8bd cf3d 2dbd
00000130: d5f2 40bd 1b59 cbbc 6e80 a9bd daed cebc
00000140: 4f7d b43d c726 0bbc d258 bdbd ba65 09bd
00000150: b838 093e da17 06bd 388c 0dbd 517f b7bd
00000160: 1bcd de3c 6fb8 023e 8950 15bc 9445 0e3d
00000170: dca4 08be 311d b23c 1ccb e23d 233a 2f3e
00000180: 37f8 f0bc ddff 213d 0686 56bd 4f76 a43b
00000190: 7779 2abd fdb7 18be 4f86 0f3e 378a 90bc
000001a0: 0841 c73d f20d acbc f068 04bd bbeb 0ebd
000001b0: 8c24 24bd dda8 0f3f 8eef 313c 962d f6bb
000001c0: 01d6 8bbe cb79 2bbd 56fb 883d d05f 00bd
000001d0: 96b9 24bd 5a0e 893d 9ad5 86bc 4054 c53b
000001e0: 3642 51bd d62d a7bc 8533 10be 03f5 4d3c
000001f0: d452 30bd cca9 81be d19f a4bd ebef 22be
-0.028178984 -0.008967984 -0.014612141 -0.23825918 -0.0075020143 0.41594705 0.085674204 -0.038159736
-0.036064632 -0.053579032 0.046959803 -0.020872274 -0.012130154 -0.23566382 -0.024739355 0.15119831
-0.031395655 0.008496623 -0.002804541 0.21106596 -0.040198825 0.004733693 0.0834963 0.029210232
-0.04880793 0.07039586 -0.03172463 0.14305699 -0.023350151 -0.11280376 -0.028265757 0.1038031
-0.21254389 -0.025720375 0.0 0.014514432 0.30402976 -0.015374283 0.0 0.11808613
-0.043139134 -0.25505275 -0.009406274 0.057043396 -0.13506961 -0.023897966 0.20212772 -0.07509763
-0.044313066 -0.16639763 -0.020921258 0.031045778 -0.032463104 -0.008271518 0.05829166 0.21944472
-0.02117571 0.023279114 -0.020689923 -0.05480923 -0.12959933 0.24383771 -0.033018857 -0.046165153
-0.096877664 -0.04199258 -0.037432753 -0.029779203 -0.047808256 -0.03267826 -0.014726302 0.0086200675
-0.12461134 -0.032873638 -0.098107114 -0.042295273 -0.047106583 -0.024822762 -0.08276449 -0.0252599
0.08812963 -0.008493132 -0.09245457 -0.03354428 0.13400543 -0.03273759 -0.03455755 -0.089598306
0.027197411 0.12765668 -0.009113439 0.034734324 -0.13344139 0.021742435 0.11073896 0.17112021
-0.029415233 0.03955065 -0.05237391 0.0050189863 -0.041619744 -0.14913936 0.14016078 -0.017644031
0.097292006 -0.021002743 -0.03232664 -0.03489278 -0.040073916 0.5611704 0.010860337 -0.0075127585
-0.2731171 -0.041864198 0.066885635 -0.031341374 -0.04021605 0.066921905 -0.016459275 0.0060220063
-0.051088534 -0.020407598 -0.14082153 0.012570622 -0.04304774 -0.25324857 -0.08038295 -0.15911834

hal_net/sequential_2/conv2d_8/BiasAdd/ReadVariableOp/resource f4 [16]
00000000: 0cf5 fabc e00c 973e 3737 1abc c21c 9bba
00000010: bb1f 073e a463 92bc a2e6 8c3e 408f a7bd
00000020: 1f5e 063e 3c1e bbbd 47b0 57bd 473a 82bd
00000030: 704b 51bd 289d 8b3e a8bf a7bd b746 e73b
-0.030634426 0.2950201 -0.009412578 -0.0011834132 0.13195698 -0.017869778 0.2751971 -0.0818162
0.13121842 -0.09136626 -0.052658346 -0.06358772 -0.051097333 0.27268338 -0.081908524 0.0070579904

hal_net/sequential_2/conv2d_7/BiasAdd/ReadVariableOp/resource f4 [32]
00000000: 5eb2 f43d 34cd 5bbd b5bf 97bc c1d5 babd
00000010: 2e79 50bd 362d 1d3e 1141 2ebd 20fe b83d
00000020: 6674 66bd a50c db3b 2fdf dabc 4e1c 93bc
00000030: 0feb 1fbd ea18 abbd d616 16bd 79e8 4dbd
00000040: 4621 4cbd d325 18bd 4337 a2bd 9e30 5bbd
00000050: 7210 89bb d1de 81bd c66e 31bd 9b2a 4cbc
00000060: 6810 b7bd dc66 4c3d 3fc6 9ebd b0d6 8e3d
00000070: 5163 c039 fa85 c0bc f96d 88bc 2ecf 233e
0.11948083 -0.053662494 -0.01852403 -0.091228016 -0.050896816 0.15349278 -0.04254252 0.090328455
-0.05626335 0.006684857 -0.02671775 -0.017957833 -0.03904253 -0.08354361 -0.03664287 -0.05027053
-0.04983642 -0.037145447 -0.079206966 -0.05351316 -0.0041828686 -0.06341327 -0.043318532 -0.01246133
-0.08938676 0.04990278 -0.07752656 0.06974542 0.0003669509 -0.023501385 -0.016654002 0.15997002

hal_net/sequential_2/conv2d_6/BiasAdd/ReadVariableOp/resource f4 [64]
00000000: ef9a 31be 8007 83bd e95a 8fbd cadd 4abe
00000010: 27f9 d8bc e72e 04bd fcc7 f13a 28ab 8d3d
00000020: d068 8bbe b609 73bd b9dd 253d 1a34 32bd
00000030: 2ae6 5fbe e920 32be 0a3b 05be 4701 763b
00000040: a839 a8bd 6d37 db3d 82de 84bd e31e 6c3d
00000050: cab3 e9bd 8bc6 b2bd 0000 0000 9eb2 de3d
00000060: 0bde 0cbe b7f9 35be f19e 01be 0000 0000
00000070: 6a42 b9bc 670c c2bc 0000 0000 dfdd c0bd
00000080: ebb4 8fbd 69ee f3bd 0c72 35bd 0000 0000
00000090: ecc2 b7bc a6ec 87bd 9854 553e 5eee fdbc
000000a0: b944 9c3e 0000 0000 0000 0000 fce7 74bd
000000b0: 9dc8 aebd af06 1a3e de5b a9bc 1e9d 42be
000000c0: a1b0 1cbd 354d a0bd 84fb 0f3d c2ea ef3d
000000d0: c9a7 0dbc c8d4 24be ff79 26bd 3805 68bd
000000e0: 88a5 2ebe 95a0 6ebc 7fa2 9b3d 1c17 8abd
000000f0: 9986 4bbe ceb1 b0bc 0000 0000 0000 0000
-0.17344259 -0.06397915 -0.069997616 -0.19811168 -0.026485993 -0.032271292 0.0018446441 0.06917411
-0.27228403 -0.059335433 0.040494654 -0.04350672 -0.21865144 -0.17395367 -0.13010803 0.0037537382
-0.08214122 0.10703931 -0.064877525 0.057646643 -0.11411245 -0.08729275 0.0 0.10873912
-0.13756578 -0.1777104 -0.12658288 0.0 -0.022614677 -0.023687555 0.0 -0.094173186
-0.07016929 -0.119107075 -0.044298217 0.0 -0.022431813 -0.06636934 0.20833051 -0.030997451
0.3052118 0.0 0.0 -0.05979155 -0.08534358 0.15041612 -0.020673689 -0.19005248
-0.038254384 -0.07827226 0.035151973 0.117146984 -0.00864596 -0.16096795 -0.04064369 -0.056645602
-0.17055333 -0.014564653 0.07599353 -0.06742689 -0.19875564 -0.021569159 0.0 0.0

hal_net/sequential_1/conv2d_5/BiasAdd/ReadVariableOp/resource f4 [16]
00000000: 098f 173e 1bff 793d 2e17 d7bd 5bcb aebd
00000010: cf7f 07bd cdd4 aa3e 0d7e e13d b737 193d
00000020: 0003 60ba c29e cfbc 6d5a 1ebd c232 003e
00000030: 2d26 c3bd f887 0a3e f32f ff3d 7028 56bd
0.14800657 0.061034303 -0.10502468 -0.08534881 -0.033080872 0.3336548 0.110103704 0.03740665
-0.0008545369 -0.025344256 -0.038660455 0.12519363 -0.09528766 0.1352843 0.124603175 -0.052284658

hal_net/sequential_1/conv2d_4/BiasAdd/ReadVariableOp/resource f4 [32]
00000000: a630 05bd e9b0 e9bd 9cd3 89bd b0d9 fcbc
00000010: bbb1 f5bb d061 7fbd 25cd 57bd 96f8 e3bd
00000020: 4c6b 87bc dcae 233e 6d5f 653e f557 4bbd
00000030: e0db 71bd 0c73 ab3d c646 4bbe a8e9 1cbd
00000040: 03e2 a9bd 71f4 40bd 158b 52bc 74ea 57bd
00000050: 5802 14bd d9fc 08bd b25e 06be 2fbc 7ebc
00000060: 7f06 cdbc 254d 1ebd 0f02 823c 9a0f ecbd
00000070: ba94 973d d328 4c3e 5e7a 15bd 4c20 a9bc
-0.032517098 -0.11410696 -0.067298144 -0.03086552 -0.0074979938 -0.06234914 -0.052685875 -0.111313984
-0.016530655 0.15984672 0.22399683 -0.04964443 -0.05904758 0.08371553 -0.19851217 -0.03830877
-0.082950614 -0.047108117 -0.012850543 -0.052713826 -0.036135048 -0.03344426 -0.13122061 -0.015547796
-0.025027512 -0.03864779 0.015870122 -0.11526413 0.07401414 0.19937448 -0.03649365 -0.020645283

hal_net/sequential_1/conv2d_3/BiasAdd/ReadVariableOp/resource f4 [64]
00000000: 1df5 cdbd 1e02 bdbd 027b e2bc 52a5 86be
00000010: 5b22 b7bb 7074 623d 0e1e 4fbd f698 e03d
00000020: c4e8 1fbd 29e9 70bd 6d89 62bd d42f d3bc
00000030: c474 b9bd 67b8 29bd 0000 0000 c9b8 b0bd
00000040: 540f 2dbc 7c06 89bd 7854 7b3d e025 68bc
00000050: 0c96 0dbd 09f1 a4be a49a a53d a5f8 903d
00000060: ba29 943a e93d 95bd a01e 51be 0000 0000
00000070: 956b 11bc 0000 0000 e6fb e5bd b816 57be
00000080: 426e b0bd 236e 8bbc 47af 5a3d b9df 5e3e
00000090: e772 83be b386 3d3d ed8c 163e 9987 40be
000000a0: 1eab 4dbd 4ccb 02be 512c 7ebd 430d 403e
000000b0: 0000 0000 7ca2 42bd 9eba abbc 0000 0000
000000c0: 0000 0000 3c29 f3bc 9aee a1be 0ce4 3bbd
000000d0: 0000 0000 e085 04be 6687 cebd 130a a13e
000000e0: 0000 0000 5c06 35be be2b 12be c3ea a43b
000000f0: d9d0 a7bd 232e f43b b741 e7bd 0000 0000
-0.10056517 -0.092289194 -0.027646545 -0.26298004 -0.0055888123 0.055286825 -0.05056577 0.10966675
-0.039040342 -0.05881611 -0.05530684 -0.025779642 -0.090554744 -0.041435625 0.0 -0.08628995
-0.010562737 -0.0669069 0.061359853 -0.014169186 -0.034566924 -0.32215145 0.08086136 0.07078675
0.0011303939 -0.07287199 -0.20421839 0.0 -0.008875747 0.0 -0.112296864 -0.2100476
-0.0861478 -0.01702029 0.053389814 0.21765031 -0.256736 0.046271037 0.14702196 -0.18801726
-0.05021202 -0.12772864 -0.062053982 0.18755059 0.0 -0.04751824 -0.02096301 0.0
0.0 -0.029682748 -0.3162735 -0.04587178 0.0 -0.12941694 -0.10084419 0.31453
0.0 -0.17678207 -0.14274499 0.0050328686 -0.081941314 0.007451789 -0.11291831 0.0

hal_net/sequential/conv2d_2/BiasAdd/ReadVariableOp/resource f4 [16]
00000000: 44e8 9abd 03b6 89bd 5547 563e 1015 9d3e
00000010: ee35 a23d f19f 1b3e e559 1b3d 6aad 0e3e
00000020: d734 d2bd 4f4a 133e 06cc 493d 3835 5fbd
00000030: f44a 573d 14b6 fe3d c6d4 913e 66c1 9fbb
-0.075638324 -0.06724169 0.20925649 0.30680132 0.079204425 0.15197732 0.037927527 0.1393334
-0.10263985 0.14383815 0.049266838 -0.054494113 0.052561715 0.124370724 0.28482646 -0.00487535

hal_net/sequential/conv2d_1/BiasAdd/ReadVariableOp/resource f4 [32]
00000000: 147e 50bc b29a 0f3c 1516 eabd a983 a83d
00000010: 2795 f63d 1cce 963d c246 72bd 6fc0 c8bc
00000020: 5c6e 1dbd 3729 10bd 5569 373e 96e4 17be
00000030: ec34 d6bd 50c4 323e dede 81bc 925a adbd
00000040: e90f 013d 8722 b8bc 3311 ecbd f2e9 1dbd
00000050: bba2 803c 94c0 81bd 5618 c7bd 40b8 79bd
00000060: eb65 b4bd 89eb 5abd 0e94 6d3d 9079 ae3d
00000070: 1861 a83d f7fb 8dbd 863a d2bd 530c ae3d
-0.012725372 0.00876491 -0.11429993 0.08228237 0.12040167 0.07363531 -0.05914951 -0.024505822
-0.038435325 -0.035195556 0.17911275 -0.14833292 -0.10459313 0.174577 -0.015853342 -0.084645405
0.031509314 -0.022477401 -0.11526718 -0.038553186 0.015702596 -0.063355595 -0.097214386 -0.06096673
-0.08808502 -0.05344728 0.058002524 0.0851928 0.08221644 -0.06932824 -0.10265069 0.084984444

hal_net/sequential/conv2d/BiasAdd/ReadVariableOp/resource f4 [64]
00000000: 25ea 0abd 59fd 4abd 0000 0000 c454 0abd
00000010: 4813 9fbd 76b3 a73d d760 6a3d 4a47 9abd
00000020: 9805 bfbd 2396 0ebd 8ce5 033e feb0 8abc
00000030: aef0 38bd b9dc 113e 55bd 44bc 02c2 a1bc
00000040: efeb 33bd 0350 9abc 352f 083e a636 783e
00000050: 4f31 1d3d 0000 0000 0000 0000 6127 5dbd
00000060: c260 71bd f6bd 3f3e b509 b9bd 7131 4c3c
00000070: b15d 9d3e 5c23 93bc dd73 9fbc c74f 22bd
00000080: 7d1f aebc 85dc 88bd 0000 0000 0881 e4bc
00000090: cc99 0f3c 0000 0000 c1af 9abc a0f7 8a3d
000000a0: 2818 94bd 0000 0000 7d18 e23d ce8e 11bc
000000b0: 985a 0dbc cefc 22bd ad6f c03a 6f98 96bd
000000c0: 03ac 3abd 2278 0fbe 8056 56bd 8802 00bd
000000d0: 9be7 54bd d934 cdbc 0000 0000 b80b 4dbc
000000e0: 2b8b f1bc b1df a03c db52 5dbd b475 9dbc
000000f0: 7875 2fbd 6461 8bbd 71b1 95bc 0000 0000
-0.033914704 -0.049558017 0.0 -0.033772245 -0.077673495 0.08188526 0.05722126 -0.075331286
-0.09327239 -0.03481115 0.12880534 -0.0169301 -0.045151405 0.14244355 -0.012008031 -0.01974583
-0.043926176 -0.01883698 0.13299258 0.24239597 0.038377102 0.0 0.0 -0.053992633
-0.058930166 0.18724808 -0.090350546 0.01246296 0.30735543 -0.017961197 -0.019464428 -0.039626863
-0.02125525 -0.06682686 0.0 -0.027893558 0.008764695 0.0 -0.018882634 0.06785512
-0.0723117 0.0 0.11039827 -0.008884145 -0.008627556 -0.039791875 0.001468172 -0.07353293
-0.0455742 -0.14010671 -0.052328587 -0.031252414 -0.05197869 -0.025049614 0.0 -0.012515001
-0.029485306 0.019637914 -0.054034095 -0.019221164 -0.042836636 -0.06805685 -0.018273087 0.0

hal_net/sequential_3/dense/MatMul f4 [128, 192]
00000000: 30d4 a6bd 38b2 0a3e b9de dabc 384d ecbd
00000010: d0c5 b03d 4f94 40bd a699 113d fc01 ce3d
00000020: 8e68 bd3d 582c 1fbb 597a 703d 93d0 323c
00000030: fe27 ad3d e895 54bd 734d 01be 5cd0 43bb
00000040: aec7 ac3d 5675 0cbd f74f aebd 8dd9 ec3c
00000050: ee8f da3d e1c7 9cbd c1ed d7bc c50d a7bd
00000060: 290f fc3c 9489 8fbc bcf8 8fbc 7491 2ebd
00000070: c486 04be dff5 d13d a370 6c3d 5870 4bbd
00000080: 4601 963d a086 543c a243 0abe ae4c 373d
00000090: 48bc 23bd 22ce 60bd 1cb5 b1bd 0df0 ab3c
000000a0: acb1 b03d de34 15be 8199 bd3d d428 1ebd
000000b0: 1548 053e 2854 65bd 1dae cc3d bd58 80bd
000000c0: 5498 f4bd 3fc8 c9bd 208a 9d3d ad1b b6bd
000000d0: d49e 68bd 3822 f2bc 5c36 c73d f1a7 d53d
000000e0: ff4b a63d 51fe 033d cdb3 08be 8235 c13d
000000f0: 3cc9 93bd 2970 173d d17f 123d 6fb0 92bd
00000100: fc70 85bc 2b3d 87bd 2358 e6bd 76b1 e8bd
00000110: 3376 85bd aec4 26bd 116e a83d 4020 1a3b
00000120: 5960 6abd 8c91 5bbd 08d0 5ebd 30e6 9abd
00000130: 0a70 5f3c 1982 8ebd 0960 6aba 4025 2f3d
00000140: 665b a63d a095 dc3b 34bd ee3d d933 163d
00000150: fccb d73d 1e2b f03b 4b40 afbd 1723 06be
00000160: 0b12 62bc a0c3 933d a2d7 aa3d e884 0c3d
00000170: 3d95 7c3d 8ca6 9abc df40 81bc cca9 6e3d
00000180: 6875 a93c e442 bfbd 98e5 f8bd 3107 833d
00000190: 5961 c0bd 0c27 653d af4b 1dbe 0017 623a
000001a0: 89ca c43c 8e2a 06bd 9a86 823d 5226 76bd
000001b0: a39a 13be ba96 333d fd6a 1bbd 1089 28bd
000001c0: 26f5 d73d c901 babd b430 8cbc 0a66 013d
000001d0: f035 0d3d 0d40 6bbd 0f5d d8bd 46f5 0b3e
000001e0: 9cab ad3d 74c5 513d 1ab5 a23d 8b22 08be
000001f0: f7d3 0abe 5850 2abd a609 383d bc26 6d3d
00000200: 842b ef3d 4c51 05be f72c f6bd 611c 9e3d
00000210: 5670 3f3d 0d64 a0bd 961d 8f3c eac3 993d
00000220: 3bf7 d83d 1fb7 7cbd 8864 46bd 0413 663d
00000230: d6ed b6bd 30f7 7c3d 994a b8bd aaa1 f3bd
00000240: bc97 df3d 2f73 a1bd 6e1a 9d3c 661b 95bb
00000250: 5abd ae3d 922f d63d 5b44 1bbe ccac 253d
00000260: 5b07 21bc 9e7c 93bc 32d8 b93d 42a8 a2bc
00000270: bdf1 8abd dcac 503d aa11 b43d edad 43bc
00000280: a54b 00be 327f cebd 5a0f 5cbd 9301 58bc
00000290: fa29 01be 77f6 abbd a2b5 623d 523a 0bbe
000002a0: d3f5 ddbd 7c2a 4d3b 4cae 053e e651 b0bd
000002b0: c47a af3d 89d5 00be 2cca 313d df13 04be
000002c0: d081 23bd 3999 aebd 6e1c 22be ccec 8d3b
000002d0: c29b 033d f028 d63d 8682 323d 3859 1b3d
000002e0: 6cfc bcbd 5047 dfbd a81a 193d 36c7 cf3d
000002f0: 8a55 cf3d 9843 213d 3468 f73d ed04 6a3d
00000300: df62 083b 6e37 8bbd 5b0a 73bd ae30 c0bd
00000310: abf6 f0bb bd93 f43d d863 0bbd 0c7e 113d
00000320: a066 513c 6015 c3ba adad c6bd 075b 35bb
00000330: fd2d 2abd 2d09 17be 7587 2ebe 7c81 82bd
00000340: 92a6 a53d 9825 e93c 8b98 17be 4397 933d
00000350: 3b61 99bd 3c1d 6f3d fa10 7a3d c408 a3bc
00000360: 356d 81bd fcd7 183d 6b49 92bd 7af8 4f3c
00000370: e711 f4bd 979d 6a3d 4a0b 1bbe 0566 8cbc
00000380: 2b2b eb3d 6170 e0bd ccb9 973b 76d5 f2bd
00000390: 96de aeb9 cd54 4fbc 3df2 90bd 0933 263d
000003a0: b9bb e33d 4b71 7a3d 11d1 2bbe ee00 093e
000003b0: 868d 6bbd 9edb fe3c 0395 04be e7e5 cbbd
000003c0: 0670 0abd 0fcc 98bd 22fc cabc 021d 2b3d
000003d0: 5a36 d93d 895e dcbd 9acc e83d 2ffe ccbd
000003e0: b9be bd3c c324 fcbd c964 11be 02f0 fc3d
000003f0: 4da1 b13d dbda 28bd 90b9 2a3d af4f 7ebd
-0.0814594 0.13544548 -0.02671753 -0.11538166 0.0863148 -0.047016438 0.03554692 0.10058972
0.09248458 -0.0024287906 0.05871043 0.010913986 0.084548935 -0.051900774 -0.12627201 -0.002987883
0.084365234 -0.034291588 -0.08511346 0.02891233 0.10671984 -0.076553114 -0.026358487 -0.08156923
0.030768948 -0.017521657 -0.01757466 -0.042619184 -0.12942034 0.10251974 0.057724606 -0.049667686
0.07324462 0.01297155 -0.13502362 0.04475086 -0.03997448 -0.054884084 -0.08677122 0.020988489
0.08627638 -0.14570948 0.09257794 -0.038613155 0.13015778 -0.05598846 0.09994147 -0.062669255
-0.11943117 -0.09852647 0.07692361 -0.088919975 -0.056792095 -0.029557332 0.09727165 0.10432423
0.08119964 0.032224957 -0.13349839 0.09434034 -0.07216117 0.0369722 0.035766426 -0.07162558
-0.016289227 -0.06603464 -0.112472795 -0.11361973 -0.06516685 -0.040714912 0.082241185 0.0023517758
-0.05722079 -0.0536056 -0.054397613 -0.07563436 0.013637552 -0.06958408 -0.0008940702 0.042760134
0.081229016 0.006731704 0.116571814 0.03667054 0.10536954 0.0073293587 -0.08557185 -0.13099323
-0.013798247 0.07215047 0.0834191 0.034306437 0.061665762 -0.018878244 -0.015778003 0.0582674
0.020685866 -0.0933893 -0.121531665 0.06397856 -0.093935676 0.05594544 -0.15360902 0.0008624643
0.024022358 -0.032755427 0.063733295 -0.06009514 -0.14414458 0.043844916 -0.03794383 -0.041146338
0.10544805 -0.09082372 -0.017113067 0.031591453 0.034475267 -0.05743413 -0.105646245 0.13667783
0.084799975 0.051213697 0.07944699 -0.13294427 -0.1355742 -0.041580528 0.044931076 0.057898268
0.11678222 -0.13019294 -0.12020295 0.077202566 0.04673799 -0.07831583 0.017470162 0.07508071
0.105940305 -0.061698075 -0.048435718 0.05617048 -0.08932082 0.061759174 -0.089986034 -0.11896069
0.10917613 -0.07883298 0.019177642 -0.0045503853 0.0853221 0.10458292 -0.15162794 0.040447995
-0.009828414 -0.018003758 0.09074439 -0.019855622 -0.06784389 0.0509461 0.08792432 -0.011943323
-0.12528856 -0.10082854 -0.053725578 -0.013183969 -0.12613669 -0.08396619 0.055349 -0.13596466
-0.10837903 0.003130584 0.1305477 -0.08609371 0.085683376 -0.12581457 0.043405697 -0.12898205
-0.03991872 -0.08525319 -0.15831158 0.004331207 0.032130964 0.10457027 0.043581508 0.037926883
-0.09227833 -0.10902274 0.037378937 0.10145418 0.10123737 0.039371103 0.12080422 0.057133604
0.0020810885 -0.06797682 -0.059336048 -0.09384285 -0.007353624 0.11942241 -0.034030765 0.0355206
0.012780815 -0.001488369 -0.09701095 -0.0027672665 -0.041547764 -0.14749594 -0.1704386 -0.063723534
0.080884114 0.028460309 -0.14804284 0.07206585 -0.07489248 0.05837749 0.061051346 -0.01990164
-0.06319658 0.037315354 -0.071429096 0.012693519 -0.11917477 0.057279196 -0.15141025 -0.01713849
0.11482843 -0.109589346 0.004630303 -0.11857121 -0.00033353706 -0.012654495 -0.07077453 0.040576015
0.1111979 0.0611432 -0.16778971 0.13379261 -0.057508014 0.031110581 -0.12947468 -0.0995596
-0.03379824 -0.07460796 -0.02477843 0.04177571 0.1060607 -0.10760219 0.1136715 -0.10009419
0.023162233 -0.12311699 -0.14198603 0.12350465 0.08673344 -0.04122434 0.041680872 -0.06208771

hal_net/sequential_3/dense_2/MatMul f4 [6, 32]
00000000: 239d b63d 4215 093e 4a31 a7be 2174 d4be
00000010: 4b96 03bf 88de e9be f923 9dbe 7dd5 6dbc
00000020: 8be7 bbbd ca8c 6fbe 7fff 90bd 6929 c13e
00000030: 92f0 363e a03a 5e3e 7232 f9be d081 a33e
00000040: 07f4 f8be f740 96be 0276 a23e 5608 033f
00000050: b9a4 cebe 6657 ff3e adff 2dbf 3918 90be
00000060: e452 f1be 628a 03be 5d14 b6bd b5c7 9f3e
00000070: 3a62 a2bd f805 7bbe 7c4d d33e 1d4f 323e
00000080: 6949 3ebf 6eed 88be 1fe8 1fbc a6ca 59be
00000090: b025 743e 7b36 a33e eec7 073f 27cc 9dbe
000000a0: d80d 18bd 3d13 2a3d 97a8 db3e 6439 e8bd
000000b0: 2bcf 57be b81c 18bf edee 443c 599c 8c3e
000000c0: d885 b03e 2de1 cbbe eeec ef3e be5a 1e3c
000000d0: 27c5 2abe ab3f b43d 42bf 123d 7915 4d3f
000000e0: baf8 933e 1e7c 973e 887f e43e 2e35 a9bd
000000f0: 284f 8fbe 6acf 60be 1921 813e 4ab7 d2be
00000100: 9934 953e c2fc 53bf c40b bcbe 0c51 5d3e
00000110: dff4 f0be bad5 25bf 657f 8bbf ae8d 18be
00000120: dcc8 f03e 51ae 01be e79a 0c3f a059 01bf
00000130: 4d48 c33e 05f9 d13e 2ca8 153d 4348 9cbe
00000140: 2ee1 e2bd 2e96 70be a960 05be 7b39 1e3e
00000150: 5d7a 19bd 176a 3bbf 795e f33d 638a 14bf
00000160: 123b d63e a76c f93d a3d2 00be 4f6b eebe
00000170: 7a24 91bf 7f2a dcbe 5e96 893e 506c 153f
00000180: 0214 8bbe 19bb bdbd fc05 02bd 0ad4 4b3e
00000190: 1e6b 09bf b0d7 c4be cf9e 58bf dad3 7e3e
000001a0: 6487 5ebf ee39 f0be c8ff e93e 56b4 c43d
000001b0: 17da 013f 3222 dc3e 81ac 1dbf cc5f b9bf
000001c0: a454 1b3e 9546 7e3e f09f 143f fa29 a6be
000001d0: b4d6 19bd 1374 e6bf 17bd a23c 41f5 283d
000001e0: 75c5 4ebf 76b8 89bf 5ace 00bf 2f43 35be
000001f0: 0a6e 043c f49e 35bf 49d6 8abd 18a6 e1be
00000200: 93ed 063e 46b0 c83e 4fc1 c6be 25d2 c4be
00000210: 8a5d cd3e 03de afbe c415 bf3d c799 773e
00000220: e691 8abd 1e3b fabe f2fe 12be 1ad8 833e
00000230: a1e7 d2be ba63 d13d eade ccbe c41e 5b3e
00000240: 20b3 ec3c 5e37 813e 0790 84be 0951 093e
00000250: b5fb e23e 1884 09bd 6a30 3c3e 2b8c 9ebe
00000260: 1438 8b3d aafd 2a3f 5aeb 46be 1a20 e8be
00000270: c829 f93e 600c 89be 7a45 c63d aa85 b33e
00000280: 9466 cc3e 6c13 97bd 0105 233f 913b 1e3f
00000290: 1dfb 6f3d 77a8 e23e 77cb 21bf 61a3 c2be
000002a0: e536 da3e 9830 dd3e 1d65 06bf 9be2 153f
000002b0: 0bea 143d 58bd 0c3f ff65 463f 6584 c83d
000002c0: 6f85 3fbe 56a4 663e 2260 04bf a771 f7be
000002d0: acb7 bebe 2d27 5cbe c982 0cbf 5c0c d93b
000002e0: c3aa 05be 5db1 11bf 097b 25bf e244 983e
000002f0: dfa3 7d3d 914c 533f c90e eabe f7ec 97be
0.0891669 0.13387015 -0.32654792 -0.4149485 -0.51401204 -0.4567759 -0.30691507 -0.014516232
-0.09175023 -0.2339355 -0.07079982 0.37726906 0.17865208 0.21702051 -0.486713 0.31934977
-0.48623678 -0.2934644 0.31730658 0.51184595 -0.40360048 0.49871367 -0.67968255 -0.2814348
-0.47133553 -0.12845758 -0.08890603 0.31207052 -0.079288915 -0.24513996 0.41270053 0.17412992
-0.74330765 -0.26743644 -0.009759932 -0.2126871 0.23842502 0.31877503 0.53039443 -0.30819818
-0.037122577 0.041522253 0.4290206 -0.113390714 -0.21075122 -0.5941882 0.012019855 0.27463034
0.34477115 -0.39820233 0.4686045 0.009665189 -0.1667677 0.08801206 0.03582693 0.8011089
0.289007 0.2958688 0.4462855 -0.08262096 -0.2799008 -0.21954122 0.25220564 -0.41155463
0.2914169 -0.8280755 -0.36727726 0.21612948 -0.47061822 -0.64779246 -1.0898253 -0.14897797
0.47028244 -0.12664153 0.5492386 -0.5052738 0.381411 0.410103 0.036537334 -0.3052388
-0.11078106 -0.23494789 -0.13025154 0.15451615 -0.03747021 -0.73208755 0.118832536 -0.5802366
0.41841942 0.12178927 -0.12580352 -0.46566245 -1.1339257 -0.43001172 0.26872534 0.58368397
-0.27163702 -0.09264202 -0.03174399 0.19905105 -0.5367907 -0.38445807 -0.8461732 0.24885502
-0.8692534 -0.46919197 0.45702958 0.09604709 0.50723404 0.4299484 -0.61591345 -1.448236
0.15169007 0.24831612 0.58056545 -0.324539 -0.037558272 -1.8004173 0.019865556 0.041249517
-0.80770046 -1.0759418 -0.5031487 -0.1770141 0.008082876 -0.7094567 -0.06779153 -0.44072032
0.13176565 0.39196986 -0.38819358 -0.38441578 0.40110427 -0.3434907 0.09330323 0.24179755
-0.06766109 -0.48873228 -0.14355066 0.2575081 -0.41192344 0.102240995 -0.4001382 0.21398455
0.028894007 0.25237554 -0.25891134 0.13409819 0.44332662 -0.03357324 0.18377843 -0.30966315
0.067978054 0.6679331 -0.19425717 -0.45336992 0.4866469 -0.26767254 0.0968122 0.35062915
0.3992201 -0.07376751 0.6367951 0.6180964 0.05858909 0.44269153 -0.6320109 -0.38015273
0.42620006 0.43201137 -0.52498037 0.585489 0.036356013 0.54976416 0.77499384 0.09790877
-0.18703245 0.22523627 -0.5170919 -0.48328897 -0.37249506 -0.2149932 -0.5488706 0.006623788
-0.13053422 -0.5691126 -0.6464086 0.29740053 0.061923858 0.82538706 -0.45714405 -0.29672977

hal_net/sequential/conv2d/Conv2D f4 [64, 3, 1, 1]
00000000: bd6a 133d bcb0 06bd d350 d3bd 9868 d53c
00000010: 361a ba3c 3a42 18bd 0b0c b0bd 72fc eabd
00000020: 14ad 15bd c9ae ef3c 2b03 4abd 32bf c1bc
00000030: fca3 5f3e 003e 7fbe 85d7 c5bd 6582 c3be
00000040: 43c7 8a3e e942 4dbc 6fed 953d 516a 5a3e
00000050: 2ed1 35bf c122 2fbe 142e d43d ab2a a23e
00000060: fadd 3ebc f4ba 953e 0d4f a13b 1157 3f3c
00000070: 559f 93bd e1e7 c63c 14a3 0cbf 4475 f1bd
00000080: f0f9 e5be 95a2 c93e 1605 a53d 1744 b6be
00000090: 20ef a33b b378 89bd f2b5 383d 9b3e bcbe
000000a0: 2266 2fbe 064e a43e 2bd3 69bb 62bd 753c
000000b0: 4743 00be 321f 9d3e fc09 97be 260d 493b
000000c0: 9ad8 1fbd 22e0 0a3d 166d 5e3c f7e9 23be
000000d0: c09f c33c 6c8a 1cbd 7e3f 5c3e 8a20 b0bd
000000e0: 0275 8dbe dcab 27bf f7aa f7be 7fbb 0dbe
000000f0: 31df 03bf d9ef 0f3e ec70 533e 4aef 9ebd
00000100: fbe0 31be e248 2fbe 8030 fb3a e26b 8fbd
00000110: 76e1 1cbe f692 823b ef0a c0bd 0d78 5a3d
00000120: 9808 9fbd fd83 14be 82ed 843d d827 593d
00000130: 7b5c a3be ef7b 43bf f59b e0be 5837 8c3e
00000140: cec5 cd3d bf71 573e e925 433e ea53 c3be
00000150: e6ff 86bd 4c9c b3be 3171 dabe 9431 393e
00000160: ee20 d4be e443 933e 4707 743c 28e1 b6ba
00000170: 3725 d2bc 78f8 fbbd e48e c5ba 748f 1b3d
00000180: 3a0c b6bd 8779 073d d175 e0bd 3dd2 82bd
00000190: 6530 9f3d 0483 3cbe c8c1 bcbc a642 dcbd
000001a0: 40be 70bd 8572 2cbd bf07 d13c 32c5 21be
000001b0: 9482 c3be f8c3 3a3e 5507 013e ee0f 73bd
000001c0: 08ec 37bd 20ad a6bc 8d0f fbbc 942e 883c
000001d0: 0fe0 acbd 9320 92bd 9887 ad3e 50d7 aabe
000001e0: c50a 553b f26f b9bd 38ae 933d d0a8 10bd
000001f0: 04a8 22be 58e7 16be d7ef 57be ecaa 603e
00000200: f8d6 08be 111d 33bd e002 483e d881 86be
00000210: 10ed 6ebe 4380 8ebe 7684 cd3e 3bb2 083d
00000220: 6d20 32be 025e d5bd 4640 54be a3f0 43be
00000230: c9c4 9c3e 50ca 83be 0654 6abd 602a 783e
00000240: bcba 9c3b 4175 8abe 42ad 453d d51e b8be
00000250: b343 ec3d 6a07 c13e 1a94 793c 5206 ca3c
00000260: 91b1 fabb 1290 f23c ceb2 d6bd ade1 b2bb
00000270: 77d0 22be 66f4 493d 8fc1 c9bd 33eb d33c
00000280: 345e 16bd 3afc 54bd 5ab1 f3bd 73c9 cbbd
00000290: 60ca f5bd ce37 e0bd 910e 6bbd 979c 823c
000002a0: b1b1 523e 9f38 303e 8085 36bf 0512 a2be
000002b0: 8a3d 083e 8f49 3f3e 088e e33e 82ea 3abe
000002c0: 8f0e 8fbe 3e22 21be 1db2 7c3e ef4d 93be
000002d0: 73fa 833e 870c 76be ec62 86be 3e5d 4c3e
000002e0: bd89 cfbe fb8a 063e 0fd4 a4bd c167 27be
000002f0: e551 e63c 8828 55bd 20c3 49bd f8eb 8fbc
0.035990465 -0.03288339 -0.1031815 0.02605085 0.022717576 -0.037172534 -0.08596047 -0.11473931
-0.036542013 0.029258149 -0.049319427 -0.02365074 0.21839899 -0.24925995 -0.09660248 -0.3818542
0.2710515 -0.01252816 0.073206775 0.21329619 -0.7102231 -0.17103101 0.10360351 0.31673178
-0.011649603 0.29244196 0.0049227537 0.011678473 -0.072081245 0.02428049 -0.5493634 -0.11789945
-0.4491725 0.39381853 0.08057611 -0.35598823 0.005002871 -0.06712475 0.04509539 -0.36766514
-0.17128804 0.32090777 -0.0035678844 0.014998766 -0.12525664 0.30687863 -0.29499805 0.0030678003
-0.039024927 0.033905156 0.013575813 -0.1600722 0.023879886 -0.038217947 0.21508595 -0.08599956
-0.27628332 -0.6549661 -0.48372623 -0.13841055 -0.5151244 0.14056338 0.20648545 -0.077604845
-0.1737098 -0.17117646 0.0019164234 -0.07002999 -0.15320382 0.0039848043 -0.093770854 0.053337146
-0.07765311 -0.14503475 0.064906135 0.053016514 -0.31906494 -0.7636098 -0.43868986 0.27385974
0.10047494 0.21039484 0.1905743 -0.3814996 -0.065917775 -0.35080183 -0.42664483 0.18085319
-0.41431373 0.28762734 0.014894313 -0.00139526 -0.025652511 -0.12303251 -0.0015072492 0.037978604
-0.08889051 0.033074882 -0.10959972 -0.06387756 0.077729024 -0.18409353 -0.02304162 -0.107549
-0.058775187 -0.0421014 0.025516389 -0.1579788 -0.3818556 0.18238819 0.12600453 -0.059341364
-0.04490283 -0.020346224 -0.030647064 0.016623773 -0.08441173 -0.07135119 0.33892512 -0.33367395
0.003250764 -0.09054555 0.07210964 -0.035317242 -0.15884405 -0.14736688 -0.21087585 0.21940202
-0.13363254 -0.04372889 0.19532347 -0.26270938 -0.2333262 -0.2783223 0.40140122 0.0333731
-0.17395182 -0.10418321 -0.20727643 -0.19134764 0.30618885 -0.2574029 -0.057209037 0.24234915
0.0047830027 -0.27042583 0.048260935 -0.35961023 0.1153635 0.3770097 0.015233064 0.024661217
-0.007650562 0.029609714 -0.10483323 -0.0054590316 -0.15899836 0.049305342 -0.098513715 0.025868988
-0.036710933 -0.051998354 -0.118990615 -0.09950533 -0.120014906 -0.10948144 -0.05738694 0.015943808
0.20575596 0.17209099 -0.71297455 -0.31654373 0.13304725 0.18680404 0.444443 -0.1825352
-0.27940795 -0.15735719 0.2467732 -0.28770396 0.25777015 -0.24028216 -0.26247346 0.19957444
-0.40534773 0.13138954 -0.080482595 -0.16348173 0.028115222 -0.052040607 -0.04925835 -0.017568573

hal_net/sequential/conv2d_1/Conv2D f4 [32, 3, 1, 64]
00000000: 7d17 b43d 1d1d 913d 3669 d5bd ee3c a83d
00000010: de79 40be 400f 5d3e 6de5 58bf 164a 373d
00000020: a684 06bc 0d50 f5bd 24f5 9dbb 7659 ba3d
00000030: 8f41 073e 8bd4 453e 4f5c ec3d 2f4f 5c3d
00000040: d714 a5bd ac1e dbbb b879 453d 81a5 9d3e
00000050: f95c d63d 7a57 eebd 782b edbd f1ea 5d3d
00000060: 5d50 713d 54cf c53c 82ce b03b b88a 633e
00000070: 579f 93be 54d3 073f fb86 b1bd 4821 1c3d
00000080: 2798 133c 81bf 1a3e 14b2 83bd 192f b13b
00000090: 94a4 c3bd e78a c4bd dfd7 dc3c 5a51 d93e
000000a0: dc21 a63d 002a 23bc 0419 fb3d 6fad aebd
000000b0: 751f 173e 4bd0 013d 09aa 7d3e 2deb 8cbe
000000c0: 6942 3a3e bdee ba3d b94b e83c 98a2 e5bd
000000d0: 6ff7 c7bc 57b4 e8bd be69 c5bd 2890 9b3d
000000e0: 23d1 89be 7475 34be cf76 debe ba2c 4d3d
000000f0: d90f 32be bc26 94be a89b 3cbd ec4f 443d
00000100: 5301 f6bd e274 cfbd 1a23 0bbe bc5b 843d
00000110: d246 4b3e f8d2 f53e d5c8 88bd 1fab 7fbe
00000120: 6ad1 09bd d06d b43c b23b 31bf 1c99 90be
00000130: 82b6 853c faa8 41bc e82b df3d baee 2f3e
00000140: f9e3 563c e985 e03d 553c c2bd c96c 68be
00000150: 0d88 6ebe 80b6 59bb 3847 21bd 5374 913d
00000160: 261a 0f3e aa8b dfbd 6de7 91be 18ba 07be
00000170: b186 47be 136a eb3e 6ccc 8dbd d71c 173e
00000180: 349f a5bd 1a96 5f3d b41c fb3d c3d2 89bc
00000190: 14d0 413e aa02 10bd 67c8 143e 1a0c ba3e
000001a0: 8dd6 7b3d b471 48bd 4cf9 b63e 47ca d3bc
000001b0: 6efb 1cbf 81c9 083d e8b8 9fbe 5a70 a83d
000001c0: e566 553e 911a 25be 90ad 54bc b404 bd3c
000001d0: f2f4 133e 9ca6 2fb8 5478 bbbd 97b3 9c3d
000001e0: 8737 a3bd cb6e b93e f453 27be 8b00 d0bc
000001f0: 584a 513e 8138 5e3e 93fe 7cbd 6472 fabc
00000200: 0cea 393d 3853 b7bd 9351 88bd b4eb d5bc
00000210: eb7c 2fbe 2c83 443d a21b 90be 0ede 59be
00000220: fb40 1abd a547 b63d 5340 b5be b41f f7bd
00000230: 57cb a6bd 0cf8 743e bbc5 8b3c 2ef8 9f3e
00000240: 5525 a7bd 6f6e e63d bd82 023e 4328 02be
00000250: 0c36 43be 1a56 013e c8e9 5d3d cd0a b83d
00000260: b1dc d5bd 42d1 15be 2fec 87be bbe9 94ba
00000270: 20ba 163e 7af3 733e a569 75bd 3208 adbd
00000280: 3237 453d c732 383d 2f58 03be ccde 16bd
00000290: bf90 ab3b 40f9 b0bb 678c d6bd bba3 c03e
000002a0: 9958 b0bd f015 463d be7a 8c3d ee49 ae3d
000002b0: d99c 22be e65a 97bc 0f66 f0bd 36cc 82be
000002c0: fa66 b83d f0fe 133c d52a dfbd e669 eb3d
000002d0: cdc4 8e3c 8c9e cdbc 56cb 9abd c65b 81bd
000002e0: 3d74 b2be 2188 e6bb d8a8 163e fbf3 b53d
000002f0: e2b7 97be 9564 74bd 7aff 71bd c0d0 ed3d
00000300: 85c9 293e 0ca4 df3d d885 9d3d 61d8 143c
00000310: 9c9e 2bbe 74cc 903e d560 3dbe 8bfc 133d
00000320: d7d3 6f3e 4482 303d a915 af3e 5339 003e
00000330: f312 413c 5a24 a5bd a94c 003e 0c72 633e
00000340: 0c68 cabd cb21 f2bd ab3a dd3c eee2 d93e
00000350: feaf e23e c0dd 27bc ec3f 993d a418 eb3d
00000360: 4b92 f7bd 7676 a83e b77c cc3e 05dd 6e3e
00000370: 42df 01bf 8fc3 37be 51c4 513d d342 af3b
00000380: a8b2 053d 9ba7 86bd 682b 573d 1866 7a3d
00000390: a0de 193e 20ec a43d 6f26 b3bd 4856 cc3d
000003a0: 25ff 1bbe e027 483d 3708 783d cfa9 223d
000003b0: 9dca 653b e857 4d3b 4f4b f0bd 5f98 9dbe
000003c0: faa6 14be 9b10 ce3c d8dd ef3d 1933 11be
000003d0: 342f 933d cd5e 19bd acaa eb3d 3dd6 a23c
000003e0: d0a8 863c 6c0a 893d fe63 04be 64e4 bf3d
000003f0: 4780 be3d 2991 64bd b96c 3c3d c855 c0bd
0.087935425 0.07085631 -0.10420458 0.082147464 -0.18796489 0.21587849 -0.84725076 0.04474839
-0.008210337 -0.11978159 -0.004820483 0.090990946 0.13208602 0.1931936 0.11541044 0.053786453
-0.080606155 -0.006687006 0.048211783 0.30790332 0.10466952 -0.116377786 -0.11580557 0.054179136
0.05891453 0.024146713 0.0053957114 0.22220886 -0.28832504 0.53056836 -0.086683236 0.038117677
0.009008444 0.15112115 -0.0643045 0.005407226 -0.09552875 -0.09596806 0.026958404 0.4244488
0.08111927 -0.009958744 0.12260631 -0.085291736 0.14758094 0.031692784 0.24771895 -0.27523175
0.18189396 0.09127567 0.02835642 -0.11212653 -0.024409978 -0.11362522 -0.09639309 0.07595855
-0.2691737 -0.1762293 -0.4345002 0.050091483 -0.17388858 -0.28935802 -0.046046883 0.047927782
-0.12011971 -0.101297155 -0.13587609 0.064628094 0.19851235 0.4801252 -0.06678931 -0.24967621
-0.03364698 0.022025019 -0.6923171 -0.28241813 0.016322378 -0.011820072 0.10897046 0.1718091
0.013115876 0.10963041 -0.09484164 -0.22697748 -0.23294087 -0.003322035 -0.03937456 0.07102265
0.13974819 -0.10915311 -0.28496876 -0.13254583 -0.19484974 0.45979366 -0.06923756 0.14757095
-0.08087006 0.054586507 0.12261334 -0.016824132 0.18927032 -0.03515879 0.14529572 0.36337358
0.06148391 -0.04893656 0.35737073 -0.02585329 -0.6132115 0.033395294 -0.3119576 0.08224554
0.20840032 -0.16123416 -0.012980834 0.023073532 0.14448908 -4.187842e-05 -0.0915381 0.076514415
-0.079695754 0.3621734 -0.1634062 -0.025390884 0.20438516 0.21701242 -0.06176622 -0.030572124
0.04538922 -0.089514196 -0.06656184 -0.026113369 -0.17137496 0.047976658 -0.28146082 -0.21276113
-0.037659626 0.08900384 -0.35400638 -0.12066594 -0.08144253 0.23922747 0.017062059 0.31244034
-0.081614174 0.11251532 0.12745185 -0.12710671 -0.19063586 0.12630501 0.05417803 0.08986435
-0.10442484 -0.14630607 -0.2654738 -0.0011361161 0.14719439 0.23823348 -0.059915204 -0.08448829
0.04814834 0.0449703 -0.12826608 -0.03683357 0.005235761 -0.0054008067 -0.10475998 0.37624916
-0.08610649 0.048360765 0.06859349 0.08510195 -0.15880145 -0.018475961 -0.11738216 -0.25546426
0.09004016 0.00903295 -0.108968414 0.11494808 0.017427826 -0.025100015 -0.075583145 -0.063163325
-0.34854308 -0.007035271 0.14712846 0.08884426 -0.2963248 -0.059666235 -0.059081532 0.116120815
0.1658078 0.10919961 0.07691544 0.009084792 -0.16759723 0.28280985 -0.1849397 0.036129516
0.23420654 0.04309298 0.34196213 0.12521867 0.011784303 -0.08063574 0.12529244 0.22211474
-0.098831266 -0.11822852 0.027005514 0.42555946 0.44274896 -0.01024574 0.07482895 0.11479309
-0.1208845 0.3290288 0.399389 0.233265 -0.5073129 -0.17945693 0.051212613 0.0053485422
0.032641083 -0.06574937 0.05253163 0.06113252 0.15026331 0.0805285 -0.08747565 0.09977394
-0.15234049 0.048866153 0.06055471 0.039712723 0.0035063394 0.0031332914 -0.11733114 -0.30780312
-0.14516822 0.025154402 0.11712235 -0.14179648 0.07186738 -0.037443925 0.115071625 0.019877547
0.016437918 0.06691441 -0.12928769 0.09369734 0.09301811 -0.055802498 0.046002124 -0.093913615

hal_net/sequential/conv2d_2/Conv2D f4 [16, 3, 1, 32]
00000000: 3b00 6ebe 5c56 543d aee1 483d 56cd 14be
00000010: 16f4 f23d d3ac 943d 891d 27be 1f46 04be
00000020: 40f7 993c 2048 95bb 6ea7 66bd e534 09be
00000030: 1cd0 d4bc 302b 423d f186 16be dd33 bf3d
00000040: 92bc 01bd b166 1abe f888 10be 04fb 87bd
00000050: 2be0 953a 1abc bb3d 3616 393d b213 33be
00000060: 9414 49be ec99 73bd 7e13 81be a242 66be
00000070: e081 a23d cef5 99bc f00e 01be 97ee 4dbd
00000080: d9d9 20be d773 4bbe 0cbc 3ebc 3ed8 36be
00000090: 3efc 913d a89d 3fbb ec32 323c cefb 96bd
000000a0: c824 053e 3166 3a3c 44cd 5fbe 9dd8 f8bd
000000b0: 61cd 103e 088f 3bbd 92b7 5cbc b3d4 bc3b
000000c0: 48a1 05bd 0aa1 be3c 143a 813d 3ba1 413e
000000d0: 07a1 75bc 3960 8eba b86d e83d dc5a ad3d
000000e0: 2ade e13d 148f b3bd ed23 94bd 59f2 08be
000000f0: 61f5 03bd e292 b53d c268 d2bd 895e d7bd
00000100: 5f49 55bc fb59 7bbe a527 cebd cbe7 4abe
00000110: 2165 583d ac70 a7bd 0825 0dbe 76a2 3bbe
00000120: 80d3 0d3e f8dc 89bd 7134 55be 4182 483d
00000130: 8a31 083d 35fa 093d da5c b13d 433b 91bd
00000140: 9667 98bc fd4e a7bd c10b 743d 306f d9bd
00000150: 7b6c 53be b10f 36be e629 dbbd b27e 40be
00000160: 31cf 19be 7f5a b7bc f527 c33d 041e ddbd
00000170: 6c7a 84bc c64a 3dbe e7d7 783c 8395 bebc
00000180: a68b 97bd b9bc 89be c42e edbd a2cd db3d
00000190: 358e 53bd fc4b 9ebd bf2d 2d3e 1445 3abd
000001a0: 28fd e5bc 06d4 103e d8ee 353e 1d43 4d3e
000001b0: f7de 463d e02f 01be 622d 65bd 75b4 e33c
000001c0: 1db2 fc3d b1a9 533d 04ea 0d3d f458 9fbd
000001d0: 0783 523c 47c7 9e3d 84eb e3bd 48f1 48bd
000001e0: c93e ab3d 4682 163e 6f6f 483d beeb 65be
000001f0: e2fb 32be bccd bdbd f249 a9bc 1c6a 37be
00000200: 1b6d 9fbc d59e fbbc 81ba ffbd d808 91bd
00000210: a272 22be ea1e 9fbc 104d a43d bb5a 20be
00000220: fe7c 02be 78ff 36bd 4d3f 85be 864e c23c
00000230: 5cd6 62be 867b 9a3d a1b6 83bd 8989 923d
00000240: 97d9 d5bd 7982 c0bd ecab 393e 603c 443d
00000250: 27f7 60be e9b8 1b3e 7a43 0b3e 6053 8f3b
00000260: 41b5 bf3d a29e febd 14e9 183e dd60 84be
00000270: 976f 5abe 12e4 36be 5beb 30be 40d8 023c
00000280: 7098 44be 6f7b 64be fd8f 813d 532a 43be
00000290: 082b 75be c12b c4bd 8966 b8bd d6a8 8a3d
000002a0: 36dc 013e bc21 903d 8d4a 0fbe eea3 01be
000002b0: 4d47 463e 8ccc 58be fe88 2cbb 67c0 4bbe
000002c0: 3d49 44be 503e f6bd 663f 203e 58e0 bd3d
000002d0: cb1c f4bd e4ab 883d a91b 80bd 65fe f4bd
000002e0: 08f0 d2bd c012 af3d 5a3f 053c 2a7d b3bd
000002f0: 523e acbd ef7d 14be b58f 223e 0344 9a3c
00000300: ceb7 253e 1297 f43e 9a36 8e3c d76a 1bbe
00000310: 809e 903e a1b2 97bd bda3 113d 5216 0c3e
00000320: cc29 0dbe 4710 2b3e 6bd0 253e 0ef6 8b3d
00000330: a448 553d b452 e0bd 10e6 2fbe 5eac b5bd
00000340: bc79 bbbe e195 133e dcff d2bc 73c9 02bd
00000350: d811 7f3c 439f 203e 9941 50bd 2559 b73d
00000360: 1de0 be3d 6823 d9bd 9acc 543e b0ad 81be
00000370: 1a86 c93d 6148 91bd 3078 ed3d 7bcb 4a3e
00000380: 7654 983e 9ee9 adbe ee22 b5bd 596e 88be
00000390: c8ef b23d 7e74 d5be 4754 3a3d 5ae2 4b3d
000003a0: cc18 18be cab4 493d 223d c6bd 4f52 39be
000003b0: 7929 0e3e 8dab 54be 3f9a 223e 6ccc e53c
000003c0: 917f d4be 76ff 50be 09f8 273e 9a7c 4e3d
000003d0: ffeb 043e 4e86 5cbe 272b 4ebf c8fa aebc
000003e0: 542f 6d3c f6d8 f83c 2230 853d 1240 af3d
000003f0: b1b1 8cbe 3dd3 803c edc4 e6bc 4448 5ebc
-0.23242275 0.05184017 0.04904335 -0.14531454 0.11862962 0.07259526 -0.1631986 -0.12917374
0.018794656 -0.004555717 -0.056312017 -0.13399084 -0.02597814 0.047404468 -0.14699914 0.09336064
-0.031673975 -0.15078236 -0.1411475 -0.06639674 0.0011434605 0.09166737 0.045187198 -0.17487982
-0.19636756 -0.059472963 -0.25210184 -0.22486356 0.07934928 -0.018793967 -0.12603354 -0.050276365
-0.15708102 -0.19868408 -0.011641514 -0.17855927 0.071281895 -0.0029238258 0.0108763985 -0.07372247
0.13002312 0.011376903 -0.21855646 -0.12150691 0.14140846 -0.045790702 -0.013471501 0.0057626604
-0.032624513 0.023270149 0.06309906 0.18909161 -0.014992005 -0.0010862417 0.11349052 0.08464596
0.110287026 -0.08767524 -0.07233415 -0.13373698 -0.032216433 0.08865906 -0.10273887 -0.10516078
-0.013017981 -0.24546044 -0.10066155 -0.19814985 0.05283082 -0.08175787 -0.13783658 -0.18323693
0.13850212 -0.067315996 -0.20820786 0.048952345 0.03325037 0.03368588 0.08660288 -0.070913814
-0.018604081 -0.08169363 0.059581522 -0.106169105 -0.20646851 -0.17779423 -0.10701351 -0.1879833
-0.15020443 -0.02238202 0.095291056 -0.10796741 -0.016171657 -0.18485555 0.015188194 -0.023264652
-0.07399683 -0.26901796 -0.115811855 0.10732581 -0.05164929 -0.077293366 0.16911982 -0.045476034
-0.028074816 0.1414338 0.17766893 0.20045133 0.04855248 -0.12615919 -0.055951484 0.02779601
0.1233866 0.051675502 0.034647003 -0.07780638 0.012848622 0.07752853 -0.111289054 -0.04905823
0.08361585 0.14698133 0.048934396 -0.2245321 -0.17478898 -0.09267756 -0.020665143 -0.17911571
-0.019461205 -0.030715385 -0.12486745 -0.07081765 -0.15864041 -0.01942392 0.08022511 -0.15659611
-0.12742993 -0.044677228 -0.26024857 0.023719084 -0.22152084 0.075430915 -0.06431318 0.07155139
-0.104418926 -0.09399886 0.18131989 0.04790914 -0.21969281 0.15207256 0.13599959 0.0043739527
0.09360743 -0.124326006 0.14932662 -0.2585515 -0.2133163 -0.1786044 -0.17277281 0.007986128
-0.19198775 -0.22312711 0.06326292 -0.19059114 -0.23942196 -0.09578658 -0.09003932 0.06770484
0.1268166 0.07037684 -0.13993283 -0.1266019 0.19363137 -0.21171778 -0.002632677 -0.19897614
-0.19168563 -0.12023604 0.15649185 0.09271306 -0.11919554 0.066734105 -0.06255276 -0.119625844
-0.102996886 0.08548498 0.00813278 -0.087641075 -0.08410324 -0.14501165 0.15875132 0.018831259
0.16183397 0.47771508 0.01736002 -0.15177475 0.28245926 -0.07407118 0.035556544 0.1368039
-0.13785475 0.16705428 0.16192786 0.068340406 0.05207123 -0.10953274 -0.17177606 -0.08870767
-0.36616313 0.14412643 -0.025756769 -0.0319304 0.015568219 0.15685754 -0.05084381 0.0895255
0.0932009 -0.10602456 0.20781174 -0.25327826 0.09840031 -0.07093883 0.115951896 0.19804184
0.2975194 -0.33967298 -0.08844553 -0.2664669 0.08737141 -0.4169044 0.04549053 0.049776413
-0.1485321 0.04924468 -0.09679629 -0.18097804 0.13883008 -0.20768566 0.15879153 0.028051578
-0.41503575 -0.2040995 0.16403212 0.050411798 0.1298065 -0.21535608 -0.80534595 -0.021359816
0.014476616 0.030376893 0.06503321 0.08557142 -0.27479318 0.015725726 -0.028170073 -0.013567034

hal_net/sequential_1/conv2d_3/Conv2D f4 [64, 3, 1, 1]
00000000: 4082 4bbd 81a6 1ebe fa6c db3d 2552 c53d
00000010: ced0 66be 7e7f 84bd 502d 88bc 5c26 063d
00000020: e73f e8bd e230 c53e 75a8 5dbd e122 a13d
00000030: 83a0 01be 616a 443c b573 bbbb 05d0 aa3e
00000040: 9797 00bd cec1 abbe 617a 4ebe 9330 bf3d
00000050: 56b7 02be 1f33 9f3e f8b3 3cbe 6ebb cdbe
00000060: 4b44 043d 7354 823b ed0b 1ebd 2bcf eb3c
00000070: 2849 8a3e 7567 b2be 113d cb3c 4e2a dabd
00000080: 3ea3 193d 0bcf 3bbc 535b 003d 963b aabd
00000090: 30fa 4bbd a101 d53d 9b84 d7bd 4610 873b
000000a0: 976f 153d 901d 0bbe 804a e6bd 442b 18be
000000b0: 274a aebd 6367 9f3e b373 073e 439e 57be
000000c0: dca9 d7bd 7e71 aa3e a07b 6ebe 4a79 c53b
000000d0: 7fb2 833d 3925 8dbe 7bf3 f0bd 7b27 19be
000000e0: 0646 8a3e a757 c4bc b493 ad3c fc52 5abc
000000f0: 702a 5ebd 7c62 1a3d 92cb f3bb 07ab 4b3e
00000100: f1e3 2f3e 5c06 7a3e 38fa b33d 9e6f e9be
00000110: c9ed 8e3e 2d01 d5be c047 0b3d dcf7 913e
00000120: 20ae fdbc c148 f9bc 9605 90bd 2a1d 4fbd
00000130: 8f36 b93d 2b08 8cbd 762e 133e b3f1 1c3d
00000140: 57fe ab3c a60b d3bd d816 95bc b642 91bd
00000150: 163f e4bd 0e7f 9f3c 827d 63bd fc19 1abd
00000160: 6dc3 31be 00ba 2c3a aec3 ed3d fa25 2fbe
00000170: d816 27bb 4ed4 893d 556e 973d 6f51 8a3d
00000180: a307 063d a7a9 063d 9dc2 53bc b652 aebd
00000190: 8c0c 19be 1e1e fb3b 115a 91be b95a 6bbe
000001a0: 72c3 c93e b823 10be 848a 7b3e c367 b1be
000001b0: 6bbf dd3d 9779 af3d da3a b43e 3c51 803e
000001c0: cd96 943c efca 98be 35e9 a2be 7ac7 a53e
000001d0: fc6d 29be d9db 6ebd e60f 5a3e b0a9 9bbd
000001e0: 840c 133e def7 893e 0b54 cabe ee2c 98bc
000001f0: 8e27 0c3e f05c 12bd 7f63 82be ae94 273e
00000200: 6e41 4d3e 0704 4a3e d363 a9be 21a4 cdbd
00000210: 806f 0a3b faed 71bd e762 04be daf0 51be
00000220: 412c bc3d 8041 a3be 2dc9 ac3e c867 a5be
00000230: 3019 25be a09f f7bb fc95 12bd 703a 67bd
00000240: d4d2 febd 636e 1fbe 064c 05be 89c3 8bbe
00000250: 1021 c7bd 3394 a63e 6ede 373e f651 8e3e
00000260: d2f5 933c 770d b03e 4e91 153c 5268 bfbe
00000270: 203e b9bb 8f17 2ebe 5d2a 04be 31c3 80bd
00000280: f0c6 a43a 88ef 043e 861e 33be 311d 983c
00000290: f36a ac3d ef53 b8bc a2e8 92be 608b e9be
000002a0: 40a1 19bd 2049 f3bc 8506 a3bd adcf 81bc
000002b0: 12e1 cc3e 5255 e6bc 92f0 28bd bf8d 6bbe
000002c0: 5e62 133e c4ae b6be 7291 3abd d175 913e
000002d0: 4478 ff3c 837d 80bd c2a2 6b3d 4383 03bd
000002e0: a87d e2be d7f6 b03e b54a 40be 3b93 543e
000002f0: cce5 763e 8053 113b fade 8fbd ee52 14be
-0.049684763 -0.15493204 0.10714145 0.096348085 -0.2254059 -0.0646963 -0.01662317 0.032751426
-0.113403134 0.38513857 -0.05411573 0.07867981 -0.12658887 0.011988253 -0.0057205805 0.3336183
-0.031394567 -0.335463 -0.20163871 0.09335437 -0.1276525 0.3109369 -0.18428028 -0.4018206
0.03229169 0.0039773523 -0.038585592 0.028785309 0.2700894 -0.34844556 0.024809392 -0.106526
0.037509196 -0.011462937 0.031337094 -0.08312146 -0.049799144 0.10400701 -0.10523339 0.004121813
0.036483373 -0.13585496 -0.112446785 -0.14860255 -0.08510237 0.31133565 0.1322773 -0.21056466
-0.10530445 0.33289713 -0.23289347 0.0060264217 0.0643053 -0.2756746 -0.1176519 -0.14956467
0.2700655 -0.023967577 0.021188594 -0.013325449 -0.05423969 0.03769158 -0.007440039 0.1988946
0.17176796 0.24416488 0.0878796 -0.4559297 0.2791579 -0.4160246 0.034003973 0.28509414
-0.030966818 -0.0304302 -0.070323154 -0.050564922 0.09043609 -0.068374954 0.14373192 0.03831644
0.020995302 -0.10304956 -0.01819937 -0.07092802 -0.11144845 0.019469764 -0.055539615 -0.037622437
-0.17359705 0.00065889955 0.116095886 -0.1710433 -0.0025495794 0.06729947 0.07394091 0.067538135
0.032722127 0.032876637 -0.012924817 -0.085118696 -0.14946193 0.0076635024 -0.28389028 -0.22983827
0.39406925 -0.14076126 0.24564558 -0.34649476 0.10827526 0.08568113 0.3520115 0.25061977
0.018138314 -0.29842326 -0.31818548 0.3237875 -0.16545862 -0.05831513 0.21295127 -0.07600725
0.14360243 0.2694692 -0.39517245 -0.018576112 0.13686964 -0.035733163 -0.25466534 0.1636531
0.2004449 0.19728099 -0.33083972 -0.10041071 0.0021123588 -0.059064843 -0.12928353 -0.20502034
0.09188128 -0.3188591 0.33747235 -0.3230574 -0.1612289 -0.0075568706 -0.035787567 -0.056452215
-0.12442556 -0.15569453 -0.13017282 -0.2729762 -0.09723103 0.32534942 0.17955944 0.27796906
0.018061552 0.34385273 0.009128882 -0.37384278 -0.005653158 -0.17001174 -0.12906785 -0.0628723
0.0012571495 0.12981999 -0.17492113 0.018568607 0.084188364 -0.02250096 -0.2869311 -0.45614147
-0.037507296 -0.029697955 -0.07960228 -0.015846098 0.40015465 -0.028116856 -0.04124505 -0.2300329
0.14392993 -0.3568021 -0.045548864 0.284102 0.031185277 -0.062739395 0.057528265 -0.032107603
-0.44236493 0.34563324 -0.18778498 0.20759289 0.24111098 0.0022175014 -0.07024951 -0.1448476
